p1.pth (torch, 466513 bytes, 24 tensors)

weight f4 [64, 3, 3, 3]
-0.073831715 0.0062440312 -0.072112985 0.06011528 -0.16225229 0.1355916 -0.15850216 -0.16980037
-0.13549867 0.11478755 -0.050920285 0.10317101 -0.14245544 -0.0858022 -0.058930393 -0.019774958
-0.13143396 0.13184796 -0.007387836 0.0937559 0.17580491 0.06750183 0.09252124 0.20673883
-0.06271871 0.083049566 -0.07167722 0.12144485 0.15534763 -0.17780192 0.14144473 0.0386213
0.04778891 0.051605266 0.14613748 -0.053210147 -0.21675918 -0.091089584 -0.1583599 -0.05300773
-0.12710118 -0.1678866 -0.08725749 0.12659822 -0.07121649 0.019274952 -0.0004497827 0.06013503
0.18190525 0.09892759 0.06507422 0.03669751 0.052642994 0.06886954 -0.01597327 -0.17924201
-0.06745624 0.18936707 0.045114543 -0.10663152 0.055776168 0.19140664 -0.13885346 -0.15160097
-0.10802984 0.034668155 -0.04434345 -0.010228429 -0.16336435 0.09476808 0.184319 0.14143768
-0.16481023 -0.18897004 0.10680023 0.0008750696 0.088931106 -0.16225922 -0.0032791256 0.15781839
0.12260317 -0.03383793 0.027166806 -0.0306999 -0.11891761 -0.12704153 -0.15112153 0.16241771
0.10326192 0.05590556 -0.22202703 0.11387201 0.022125723 0.085066885 -0.16490366 -0.025219614
0.14837009 0.087918505 0.0955432 -0.061288867 0.16276242 -0.1383883 0.0126042375 -0.14225733
-0.058895946 -0.056762062 0.01010501 0.16280179 0.11109527 0.012289936 0.13395303 -0.09900441
0.09827427 -0.026982116 -0.053121988 -0.026687881 -0.19379231 0.012659802 0.046869118 0.11721747
-0.084096424 0.041025702 0.14686109 -0.12989576 0.102689035 -0.17440745 0.085415214 0.07158423
0.032426238 0.14498203 -0.08686904 0.03092294 -0.028313523 -0.20271556 -0.10477016 -0.1476295
0.10068908 0.04478376 -0.0027053386 -0.060457718 -0.0053944625 -0.051528428 0.082296275 0.21811788
0.0204112 -0.064338915 -0.09677911 -0.0010336691 -0.1489854 -0.17271839 -0.11122351 -0.04492929
0.02461646 0.11989146 0.079875655 0.14865938 -0.14622614 -0.009955327 -0.21685973 0.100054525
0.029582819 0.16539061 -0.113602355 0.18971722 0.16178246 0.1516455 0.042969 0.16296576
0.12878369 0.1395867 -0.0028156685 -0.13985662 0.014696568 0.034185003 -0.1549069 -0.114362955
-0.19882667 -0.07774728 0.1582816 0.050609328 -0.011716647 0.0069526224 0.10224321 -0.19883475
-0.1674198 -0.090353556 -0.12049659 0.080725856 0.14581876 -0.1194856 -0.31044322 -0.1330972
-0.0565444 -0.09602157 -0.2792066 -0.1441258 -0.060506 -0.10253732 0.21036847 0.028279284
-0.012583326 -0.00471813 0.000750574 -0.07322502 -0.13666601 -0.013094727 0.037382245 0.03492713
-0.029931264 0.16380651 -0.06846773 -0.053184655 0.085820094 -0.119554184 0.044779185 -0.014303898
0.14419177 -0.11198369 0.032401696 0.052360464 -0.16159664 -0.106220864 0.09972142 -0.08317897
0.12279889 -0.11999298 -0.087636046 -0.11511636 0.12183901 -0.0013945947 0.0160566 -0.0031498277
-0.18247363 0.060974233 0.074702725 -0.10230613 0.134273 0.04851732 -0.15755628 0.16750912
0.14426689 -0.03382319 -0.09898247 -0.04372819 0.07769731 0.17406514 -0.1660076 -0.08289526
0.16328827 0.0557415 0.12235516 -0.14702629 0.09569664 -0.24256147 -0.026346188 -0.04019711
00000000: 1535 97bd bb9a cc3b f9af 93bd 713b 763d
00000010: 7725 26be 86d8 0a3e 644e 22be 26e0 2dbe
00000020: 2ac0 0abe bc15 eb3d ca91 50bd 534b d33d
00000030: d7df 11be 10b9 afbd ff60 71bd 18ff a1bc
00000040: a096 06be 2703 073e a915 f2bb 1803 c03d
00000050: 3406 343e 663e 8a3d c77b bd3d 58b3 533e
00000060: ab72 80bd e415 aa3d 82cb 92bd 14b8 f83d
00000070: 7313 1f3e b511 36be e3d6 103e 5e31 1e3d
00000080: 4ebe 433d 0b60 533d 10a5 153e e2f2 59bd
00000090: 1ef6 5dbe 2d8d babd 1929 22be a21e 59bd
000000a0: d026 02be 77ea 2bbe 0eb4 b2bd f7a2 013e
000000b0: f3d9 91bd 81e6 9d3c d0d0 ebb9 2650 763d
000000c0: 5f45 3a3e 8c9a ca3d a245 853d 2150 163d
000000d0: 2ea0 573d 790b 8d3d 60da 82bc 388b 37be
000000e0: 7f26 8abd 71e9 413e 07ca 383d a061 dabd
000000f0: 8d75 643d 1a00 443e 9a2f 0ebe 493d 1bbe
00000100: c03e ddbd 3200 0e3d 7aa1 35bd 2495 27bc
00000110: fc48 27be c415 c23d 1fbe 3c3e 0ad5 103e
00000120: 03c4 28be 5d81 41be 14ba da3d ed64 653a
00000130: 8321 b63d 4827 26be 99e6 56bb 259b 213e
00000140: 5f17 fb3d a499 0abd ec8c de3c 5b7e fbbc
00000150: 138b f3bd 2d17 02be 9abf 1abe d450 263e
00000160: fc7a d33d 3afd 643d 0e5b 63be ba35 e93d
00000170: 0141 b53c 8c37 ae3d 81dc 28be 5d99 cebc
00000180: 54ee 173e 9e0e b43d 27ac c33d 090a 7bbd
00000190: 31ab 263e aab5 0dbe 0182 4e3c e8ab 11be
000001a0: e03c 71bd 567f 68bd 7c8f 253c 83b5 263e
000001b0: eb85 e33d ba5b 493c fc2a 093e d3c2 cabd
000001c0: 0544 c93d 9909 ddbc 7196 59bd 8ba0 dabc
000001d0: 7e71 46be 0f6b 4f3c d5f9 3f3d b70f f03d
000001e0: bf3a acbd 910a 283d c162 163e 6503 05be
000001f0: a14e d23d de97 32be 2cee ae3d c19a 923d
00000200: 60d1 043d 2b76 143e 65e8 b1bd 1b52 fd3c
00000210: c3f1 e7bc ab94 4fbe bd91 d6bd 302c 17be
00000220: 1436 ce3d 2d6f 373d 0d4c 31bb 83a2 77bd
00000230: 08c4 b0bb 790f 53bd f38a a83d 4b5a 5f3e
00000240: 6435 a73c 1fc4 83bd 2034 c6bd 2e7c 87ba
00000250: a18f 18be 17dd 30be 27c9 e3bd c607 38bd
00000260: 75a8 c93c a789 f53d d995 a33d 2a3a 183e
00000270: 4ebc 15be ab1b 23bc 7a10 5ebe 63e9 cc3d
00000280: ab57 f23c 285c 293e 5aa8 e8bd 3b45 423e
00000290: 4daa 253e f548 1b3e 4300 303d 7fe0 263e
000002a0: dfdf 033e d1ef 0e3e 1487 38bb 9336 0fbe
000002b0: e0c9 703c 9305 0c3d ea9f 1ebe 2037 eabd
000002c0: 3899 4bbe f739 9fbd 9214 223e ba4b 4f3d
000002d0: 2ef7 3fbc d3d2 e33b e364 d13d 569b 4bbe
000002e0: 1970 2bbe 490b b9bd ebc6 f6bd 9953 a53d
000002f0: 8351 153e deb4 f4bd 6af2 9ebe a24a 08be
00000300: 1a9b 67bd f5a6 c4bd 2bf4 8ebe b795 13be
00000310: 24d5 77bd 16ff d1bd d56a 573e f5a9 e73c
00000320: 4b2a 4ebc 8b9a 9abb 2bc2 443a 00f7 95bd
00000330: 2df2 0bbe 448b 56bc 201e 193d c00f 0f3d
00000340: 6932 f5bc e5bc 273e cf38 8cbd 27d8 59bd
00000350: 72c2 af3d d3d8 f4bd 616a 373d e65a 6abc
00000360: 02a7 133e b457 e5bd a4b7 043d ed77 563d
00000370: 9779 25be 538a d9bd be3a cc3d bc59 aabd
00000380: fc7d fb3d e1be f5bd 877a b3bd 20c2 ebbd
00000390: bb86 f93d d5ca b6ba 2189 833c 576d 4ebb
000003a0: 5eda 3abe 1ec0 793d befd 983d e085 d1bd
000003b0: dc7e 093e 19ba 463d 6f56 21be 8387 2b3e
000003c0: b3ba 133e 2f8a 0abd 52b7 cabd 551c 33bd
000003d0: c41f 9f3d 223e 323e e5fd 29be fdc4 a9bd
000003e0: 0a35 273e 3351 643d 5895 fa3d 0f8e 16be
000003f0: 9afc c33d 0962 78be f6d3 d7bc baa5 24bd

bias f4 [64]
0.005691992 -0.11413048 -0.10806531 -0.0022828449 0.09024938 -0.14386563 -0.1654965 0.085131004
0.04851543 -0.12835707 -0.10158964 0.14325003 -0.09638456 0.136086 -0.13400291 0.058639478
-0.010671273 0.059208315 0.073747054 -0.10337252 -0.1654058 -0.032452527 0.027240654 -0.07674086
0.08578407 0.21928594 -0.0606088 0.06545388 0.06105397 0.110424526 -0.11177969 -0.18051083
-0.10869132 0.033787485 -0.19143362 0.12955238 0.17387038 0.05100527 -0.14738233 -0.19832301
0.1129441 -0.13104695 0.08091058 0.17538662 -0.112838924 0.08988579 -0.0111884065 0.05669528
0.08767271 -0.008313104 0.05784817 -0.048867837 0.043518536 0.034194462 0.14695762 0.17111915
0.05466024 0.178049 -0.18538739 -0.12349778 -0.17199218 -0.093607895 0.15114088 -0.15376101
00000000: e483 ba3b 3ebd e9bd 5851 ddbd c89b 15bb
00000010: abd4 b83d 8351 13be ea77 29be 2a59 ae3d
00000020: 1eb8 463d 0970 03be 3b0e d0bd 23b0 123e
00000030: 4565 c5bd 215a 0b3e 0f38 09be f32f 703d
00000040: 90d6 2ebc 6b84 723d b208 973d f9b4 d3bd
00000050: 2360 29be f1ec 04bd cb27 df3c 502a 9dbd
00000060: 8faf af3d 7e8c 603e ef40 78bd af0c 863d
00000070: ba13 7a3d 4126 e23d c0ec e4bd d5d7 38be
00000080: 8e99 debd bf64 0a3d 2d07 44be 61a9 043e
00000090: 140b 323e e7ea 503d 65eb 16be 3015 4bbe
000000a0: 3c4f e73d 2c31 06be 72b4 a53d 8d98 333e
000000b0: 1818 e7bd 0b16 b83d 944f 37bc 4f39 683d
000000c0: c08d b33d af33 08bc 34f2 6c3d a429 48bd
000000d0: 7e40 323d 7e0f 0c3d 0f7c 163e dc39 2f3e
000000e0: 6ae3 5f3d 7a52 363e 31d6 3dbe 67ec fcbd
000000f0: b81e 30be 7fb5 bfbd adc4 1a3e 8773 1dbe

weight f4 [64]
0.9587796 0.8971313 1.066366 0.8590621 0.99521834 1.0085636 0.96435565 0.8718771
0.9185148 0.9720256 0.9895279 0.9311162 1.1137581 0.9128697 1.1117512 0.9725427
1.0493506 0.9445906 1.0718974 0.93234724 0.9336221 1.074029 0.8539291 1.1249996
1.0139375 0.99370927 1.152988 0.8801379 0.8802509 1.0251609 0.9888827 0.93464774
0.9124685 1.1340264 0.98046356 1.0229733 0.9439538 1.0379562 0.9551428 1.0962162
0.9986102 0.84670484 1.017197 1.0194275 0.9895765 1.019558 0.9826769 1.0512567
1.0233294 0.9988682 0.9753252 0.84961474 1.0605022 0.9853608 0.99058104 0.9279537
0.97517467 1.0586147 0.92754656 1.0658549 0.94978243 0.96700776 0.8129477 1.0900446
00000000: 9472 753f 66aa 653f ae7e 883f 7eeb 5b3f
00000010: a1c6 7e3f 9d18 813f 03e0 763f 5633 5f3f
00000020: c923 6b3f abd6 783f b351 7d3f a25d 6e3f
00000030: a08f 8e3f d4b1 693f dd4d 8e3f 8ff8 783f
00000040: 1f51 863f b1d0 713f ef33 893f 4fae 6e3f
00000050: dc01 6f3f c879 893f 199b 5a3f fdff 8f3f
00000060: b4c8 813f bb63 7e3f 1c95 933f b850 613f
00000070: 1f58 613f 7938 833f 6b27 7d3f 1345 6f3f
00000080: 8997 693f c727 913f a9ff 7a3f caf0 823f
00000090: f5a6 713f c0db 843f 3d84 743f d050 8c3f
000000a0: eba4 7f3f a6c1 583f 8333 823f 9a7c 823f
000000b0: e354 7d3f e080 823f b790 7b3f 948f 863f
000000c0: 75fc 823f d4b5 7f3f eaae 793f 5a80 593f
000000d0: 89be 873f 9b40 7c3f b896 7d3f 608e 6d3f
000000e0: 0ca5 793f b080 873f b173 6d3f ef6d 883f
000000f0: f124 733f d28d 773f 571d 503f 9586 8b3f

bias f4 [64]
-0.016294608 -0.11164536 0.2193764 0.056351364 0.10116555 -0.04888615 0.052264716 -0.099924296
-0.06271516 -0.037085213 0.067720145 -0.0921469 0.06550331 -0.1084672 0.1065924 -0.005866358
0.062403854 -0.035036404 0.24489085 -0.06451852 -0.016272034 0.2205159 -0.15086727 0.090439826
0.03153905 -0.044710454 0.08734692 -0.09733396 -0.1341084 0.06609941 -0.08705885 -0.03142965
-0.06219128 0.01843019 0.059260197 0.049062874 -0.097372614 0.07003283 -0.067046516 0.037190955
0.061686188 -0.1404166 0.09098485 0.08340391 -0.106032684 0.0854277 -0.028880076 0.17689057
-0.01237092 0.09724037 -0.050996844 -0.13595508 0.13874502 0.047751598 0.017120982 -0.12334514
-0.14273371 0.15017472 0.017149778 0.17150225 -0.15120316 0.1185071 -0.14723626 0.013129502
00000000: 457c 85bc 53a6 e4bd 35a4 603e b0d0 663d
00000010: e22f cf3d d83c 48bd 8713 563d 1ca5 ccbd
00000020: ce70 80bd aae6 17bd dcb0 8a3d 84b7 bcbd
00000030: 9926 863d 0d24 debd 1e4d da3d 943a c0bb
00000040: 2f9b 7f3d 5582 0fbd abc4 7a3e 4922 84bd
00000050: ee4c 85bc ecce 613e f37c 1abe 8438 b93d
00000060: 172f 013d 4f22 37bd f1e2 b23d 0757 c7bd
00000070: b653 09be 215f 873d e94b b2bd 60bc 00bd
00000080: 49bc 7ebd e9fa 963c d2ba 723d 27f6 483d
00000090: 4b6b c7bd 5f6d 8f3d af4f 89bd 8b55 183d
000000a0: a8aa 7c3d 5fc9 0fbe 4456 ba3d abcf aa3d
000000b0: aa27 d9bd b8f4 ae3d e995 ecbc cd22 353e
000000c0: 66af 4abc f625 c73d 11e2 50bd cf37 0bbe
000000d0: 2d13 0e3e 2e97 433d 4d41 8c3c 609c fcbd
000000e0: c928 12be 67c7 193e b17d 8c3c 499e 2f3e
000000f0: 00d5 1abe dab3 f23d 1ac5 16be 1f1d 573c

running_mean f4 [64]
0.021169826 -0.09216861 -0.11293017 -0.008599391 0.090447105 -0.1357972 -0.16800159 0.07144441
0.05293271 -0.12404369 -0.103731416 0.145368 -0.10080492 0.1305658 -0.13145138 0.04962618
-0.006824947 0.0467769 0.07319807 -0.091111645 -0.1688064 -0.03023732 0.020655127 -0.0770271
0.092646115 0.22702746 -0.059653774 0.06038768 0.07325268 0.10148755 -0.10250405 -0.16156512
-0.106923506 0.036545582 -0.18873087 0.119135946 0.1718798 0.06325132 -0.13927329 -0.19615413
0.11273734 -0.131129 0.0849458 0.1749823 -0.1409475 0.08744136 -0.021584861 0.052407205
0.09962752 -0.009768859 0.07685562 -0.017670399 0.04299926 0.047099397 0.14914264 0.17106737
0.044075847 0.1795392 -0.1835038 -0.12784998 -0.19946542 -0.09252412 0.18625133 -0.14835775
00000000: 586c ad3c e5c2 bcbd ef47 e7bd 76e4 0cbc
00000010: 553c b93d 6c0e 0bbe 9c08 2cbe 7251 923d
00000020: f8cf 583d 9e0a febd 2371 d4bd 59db 143e
00000030: cf72 cebd 0bb3 053e 319b 06be d244 4b3d
00000040: cea3 dfbb 2299 3f3d dfe8 953d be98 babd
00000050: 96db 2cbe 42b4 f7bc f134 a93c 62c0 9dbd
00000060: 3fbd bd3d e379 683e 8457 74bd 1259 773d
00000070: 8005 963d b4d8 cf3d a5ed d1bd 5471 25be
00000080: b6fa dabd d2b0 153d aa42 41be 8cfd f33d
00000090: 4201 303e e889 813d a89d 0ebe a1dc 48be
000000a0: d6e2 e63d ae46 06be 10f8 ad3d 8f2e 333e
000000b0: 8b54 10be 7514 b33d bcd2 b0bc f0a8 563d
000000c0: 8309 cc3d 900d 20bc 7b66 9d3d 83c1 90bc
000000d0: fe1f 303d 4ceb 403d d9b8 183e 492c 2f3e
000000e0: e088 343d 20d9 373e 6ce8 3bbe 1beb 02be
000000f0: aa40 4cbe 497d bdbd abb8 3e3e 18eb 17be

running_var f4 [64]
0.39371976 0.22064748 0.27643317 0.15401068 0.18027715 0.15099612 0.43877867 2.0582726
0.1440866 0.078030355 0.074500166 0.07515612 0.13749373 0.39938265 0.16260761 0.26438856
0.09506549 0.8809135 0.07450987 0.29063424 0.2534872 0.2920995 0.3133665 0.12723176
0.06942207 0.04273632 0.116609626 1.8989259 0.5926757 0.14343195 0.10392284 0.5772892
1.7365098 0.2759035 0.11123656 0.37351477 0.14413522 0.11055895 0.2585801 0.106306076
0.03386474 0.3882573 0.07184511 0.10660091 0.34093174 0.084149614 0.082692474 0.15277702
0.18204932 0.11959423 0.1421093 3.9844666 0.0572624 0.46285927 0.1165614 0.15873715
0.10446235 0.06711465 0.10944466 0.15239438 0.9422992 0.15011162 0.58615744 0.14506607
00000000: a395 c93e 6af1 613e a688 8d3e fab4 1d3e
00000010: 939a 383e ba9e 1a3e 99a7 e03e bdba 0340
00000020: 708b 133e 61ce 9f3d 8b93 983d 74eb 993d
00000030: 28cb 0c3e e27b cc3e 9c82 263e f05d 873e
00000040: b2b1 c23d 8c83 613f a198 983d 03ce 943e
00000050: 13c9 813e 118e 953e 9371 a03e 0b49 023e
00000060: 292d 8e3d 480c 2f3d 07d1 ee3d 0110 f33f
00000070: 98b9 173f d3df 123e 7fd5 d43d 3ac9 133f
00000080: f445 de3f 3943 8d3e fecf e33d 543d bf3e
00000090: 2f98 133e bb6c e23d 9c64 843e 00b7 d93d
000000a0: c1b5 0a3d a9c9 c63e 8723 933d 9451 da3d
000000b0: 9b8e ae3e a256 ac3d ac5a a93d 9471 1c3e
000000c0: 236b 3a3e d2ed f43d 1a85 113e 8001 7f40
000000d0: fa8b 6a3d e4fb ec3e beb7 ee3d fe8b 223e
000000e0: 5bf0 d53d 6873 893d 8624 e03d 460d 1c3e
000000f0: 853a 713f dcb6 193e 6a0e 163f 338c 143e

weight f4 [64, 64, 3, 3]
-0.044139028 -0.074359804 -0.056125984 -0.10339359 -0.083445005 -0.064537965 -0.06429431 -0.11658103
-0.06826591 -0.021221902 -0.08074098 -0.09647587 0.014555248 -0.053735014 -0.039661862 0.034294724
0.0142662255 -0.048618317 0.007827086 -0.029596375 -0.004078088 0.07172709 0.008778461 0.058903787
-0.030441886 0.031725742 0.055200156 0.0030016575 -0.03278535 0.03676399 0.051234063 0.018249486
0.0136199845 0.047425963 0.016219947 0.066825114 0.013738135 0.014800506 0.018360894 -0.038349498
-0.009606313 0.062645696 0.033024196 -0.039574463 -0.021763992 -0.026919411 -0.0043946626 0.021569582
-0.07259862 -0.032284774 -0.004424206 -0.088388346 0.008258642 0.0061641126 -0.06256934 -0.03692723
-0.032887794 -0.03642814 -0.0034644266 -0.04167601 -0.04647785 -0.0330178 -0.0147538055 -0.017241688
0.00742607 0.020674115 0.009873756 -0.03262427 0.038759913 0.009122519 -0.03998518 -0.021717751
-0.013425073 0.006779096 -0.06451893 0.057120383 0.05654198 0.018248687 0.06818231 0.015260664
-0.018966699 -0.02974112 -0.039482653 -0.08247395 -0.015695157 -0.0554002 -0.010463396 -0.08669484
-0.08565853 -0.043194924 -0.10143747 -0.0943875 -0.044638176 0.00891319 -0.08228234 -0.020942552
-0.09005092 -0.06688207 -0.07053738 -0.017129628 0.0056393053 -0.04542912 -0.08330636 -0.06619324
-0.01866389 -0.03325213 -0.029201245 -0.0144211985 0.04554849 -0.007374324 0.01502411 0.08169848
0.086014055 0.067855015 0.09406139 0.07769927 0.05171034 -0.014659162 -0.045575134 -0.057911042
0.06561643 -0.001976414 -0.001823506 0.007100318 0.03519891 -0.024292206 -0.00046198387 0.0973548
0.0012208006 0.058713872 0.07254891 0.07013638 0.02887565 0.04211567 0.050044917 0.03678134
-0.0072000185 0.037197758 0.04754011 -0.039331313 0.014531054 0.030561531 0.028338192 0.013933842
0.024578677 0.033654273 0.027645398 0.009426486 0.052579734 0.06695812 0.0770337 0.06839716
0.07385103 -0.12295115 -0.09388285 -0.035861496 -0.11200668 -0.02505094 -0.060699943 -0.08955608
-0.07000819 -0.032016046 -0.040521584 0.03193839 -0.014871108 -0.023100521 0.0054874895 0.014926776
-0.0009454557 -0.013772875 0.00026541395 -0.1136196 -0.096336655 -0.07064046 -0.09400196 -0.07417621
-0.06410986 -0.031442516 -0.060572945 -0.07081667 0.051815845 -0.036203016 0.00067102164 0.031099511
-0.060225073 -0.059223957 0.01090416 -0.005476649 0.008364694 -0.088893466 0.010871639 -0.00011766775
-0.010990101 0.010918677 -0.015069941 -0.031021079 0.0060506035 -0.0030467042 -0.039434228 -0.06813737
-0.0138880005 -0.015151442 0.0018856674 -0.026395286 -0.04724958 0.019250818 -0.029881442 0.077934526
0.120443344 0.010398172 0.12971874 0.11643398 0.10258256 0.0069340956 0.1236827 0.0781929
0.04202465 -0.044840675 -0.046570078 0.075488485 0.008656699 0.016233077 -0.008591884 -0.004288811
0.0230265 -0.08370017 -0.020758303 -0.019331543 -0.06644075 -0.017868105 -0.011011239 -0.078344606
-0.020862268 -0.035010103 -0.036511377 -0.08557875 0.022497702 0.014751325 -0.090908326 -0.0030814179
0.0072400216 -0.05686736 0.019034011 -0.017439503 0.017029727 0.008178963 0.0031389496 -0.028388279
-0.026439281 -0.03272039 0.01775736 0.0066963867 -0.060258366 -0.010390308 -0.004539221 -0.047825936
00000000: 20cb 34bd f449 98bd 5ce4 65bd 05c0 d3bd
00000010: 37e5 aabd 7b2c 84bd bcac 83bd 09c2 eebd
00000020: ffce 8bbd 8ed9 adbc 875b a5bd 2495 c5bd
00000030: 2379 6e3c 3f19 5cbd 7a74 22bd a078 0c3d
00000040: e3bc 693c 0024 47bd 2e3d 003c 1974 f2bc
00000050: 7ba1 85bb a7e5 923d 89d3 0f3c 1945 713d
00000060: 4361 f9bc daf2 013d 8f19 623d 75b7 443b
00000070: ee49 06bd d695 163d cfda 513d f27f 953c
00000080: 5b26 5f3c ba41 423d b2df 843c 9bdb 883d
00000090: ea15 613c d27d 723c 9669 963c 5d14 1dbd
000000a0: cc63 1dbc 634c 803d 6144 073d d518 22bd
000000b0: 664a b2bc 1986 dcbc 1a01 90bb b1b2 b03c
000000c0: 96ae 94bd 0a3d 04bd eef8 90bb f304 b5bd
000000d0: 414f 073c 53fc c93b 5b24 80bd 0241 17bd
000000e0: 5ab5 06bd ac35 15bd 6f0b 63bb 77b4 2abd
000000f0: 8f5f 3ebd ac3d 07bd f2b9 71bc 713e 8dbc
00000100: 6456 f33b c35c a93c 89c5 213c 07a1 05bd
00000110: b7c2 1e3d 9e76 153c 80c7 23bd 6de9 b1bc
00000120: d6f4 5bbc 2e23 de3b 8022 84bd 10f7 693d
00000130: 9098 673d 457e 953c 2ba3 8b3d dd07 7a3c
00000140: 0d60 9bbc a6a3 f3bc 90b8 21bd 1ae8 a8bd
00000150: 2193 80bc 52eb 62bd aa6e 2bbc 108d b1bd
00000160: bd6d afbd 29ed 30bd 73be cfbd 3c4e c1bd
00000170: 85d6 36bd a108 123c a583 a8bd b78f abbc
00000180: 9e6c b8bd 77f9 88bd e775 90bd 6f53 8cbc
00000190: ecc9 b83b e313 3abd 869c aabd 5290 87bd
000001a0: 04e5 98bc 6333 08bd 7337 efbc e446 6cbc
000001b0: 0e91 3a3d 50a4 f1bb af27 763c 8851 a73d
000001c0: 2328 b03d 92f7 8a3d 42a3 c03d cb20 9f3d
000001d0: 39ce 533d fb2c 70bc feac 3abd 2134 6dbd
000001e0: e861 863d b986 01bb b502 efba c9a9 e83b
000001f0: bb2c 103d 7300 c7bc 6d36 f2b9 f461 c73d
00000200: 4503 a03a f57d 703d 8694 943d aaa3 8f3d
00000210: a18c ec3c 7b81 2c3d e6fb 4c3d 08a8 163d
00000220: 22ee ebbb ad5c 183d 6bb9 423d df19 21bd
00000230: a813 6e3c 2d5c fa3c 7f25 e83c c54a 643c
00000240: 3959 c93c 10d9 093d 9a78 e23c 8c71 1a3c
00000250: d95d 573d 5721 893d d8c3 9d3d cf13 8c3d
00000260: 353f 973d d0cd fbbd a745 c0bd 81e3 12bd
00000270: c263 e5bd a137 cdbc 81a0 78bd 2e69 b7bd
00000280: 7460 8fbd 4223 03bd f6f9 25bd d4d1 023d
00000290: f3a5 73bc 4e3d bdbc 66d0 b33b 708f 743c
000002a0: 75d8 77ba a0a7 61bc 4227 8b39 65b1 e8bd
000002b0: 274c c5bd f2ab 90bd 1984 c0bd b2e9 97bd
000002c0: 084c 83bd dec9 00bd 561b 78bd 5508 91bd
000002d0: da3c 543d 9d49 14bd 80e7 2f3a 67c4 fe3c
000002e0: 91ae 76bd d294 72bd 5da7 323c 7675 b3bb
000002f0: 120c 093c c70d b6bd f51e 323c 64c4 f6b8
00000300: d30f 34bc 40e4 323c eae7 76bc eb1f febc
00000310: 2444 c63b 37ab 47bb c985 21bd 9b8b 8bbd
00000320: 7f8a 63bc c13d 78bc 8028 f73a ed3a d8bc
00000330: c788 41bd e4b3 9d3c edc9 f4bc 239c 9f3d
00000340: 00ab f63d 185d 2a3c fdd4 043e f074 ee3d
00000350: ce16 d23d 6937 e33b 5b4d fd3d 9923 a03d
00000360: 0a22 2c3d dbaa 37bd 44c0 3ebd b599 9a3d
00000370: d4d4 0d3c 3bfb 843c f9c4 0cbc 2789 8cbb
00000380: 12a2 bc3c ff6a abbd 510d aabc 2f5d 9ebc
00000390: 1712 88bd 2260 92bc 7c68 34bc 2373 a0bd
000003a0: 59e7 aabc c166 0fbd f48c 15bd e943 afbd
000003b0: 1a4d b83c 8baf 713c 252e babd 9df1 49bb
000003c0: b43d ed3b c0ed 68bd 37ed 9b3c 4add 8ebc
000003d0: ed81 8b3c 0f01 063c d6b6 4d3b 898e e8bc
000003e0: 3197 d8bc d105 06bd e277 913c 5d6d db3b
000003f0: 7ad1 76bd 1c3c 2abc bfbd 94bb 21e5 43bd

bias f4 [64]
0.044766273 0.017842988 0.0022156835 0.03706525 0.0062335166 0.014193643 0.023336481 -0.0064862324
-0.008010061 0.003644712 0.042003524 0.019056905 0.017891675 -0.014123094 -0.035298023 -0.016205462
-0.008062183 0.028108308 0.028330332 -0.001884537 -0.033102967 0.02078451 0.0039603575 -0.025194498
0.022896847 -0.010828345 -0.030587869 0.024084859 -0.01212833 0.020321855 0.0029867142 -0.0064775273
-0.022317179 0.037027944 0.03528916 0.04138617 0.011580565 -0.024475623 -0.009281927 0.011145841
-0.038626052 -0.030842634 0.04769005 -0.017799053 0.03131483 -0.02618376 -0.0066202353 0.028686782
0.014035785 -0.01271894 0.0083649075 -0.010123519 0.01790319 0.01921847 0.017185058 -0.013880535
-0.037162498 0.046635617 0.03588496 0.010947463 0.008069819 -0.0048670326 -0.00585487 -0.027929131
00000000: d75c 373d 752b 923c 0035 113b bbd1 173d
00000010: 8742 cc3b 748c 683c 262c bf3c 768a d4bb
00000020: a23c 03bc 1fdc 6e3b e30b 2c3d 3a1d 9c3c
00000030: 9091 923c 8d64 67bc a994 10bd 51c1 84bc
00000040: 3f17 04bc 6543 e63c 0315 e83c 9202 f7ba
00000050: fa96 07bd 4744 aa3c e3c5 813b b164 cebc
00000060: 2b92 bb3c 5f69 31bc 6993 fabc 9c4d c53c
00000070: e7b5 46bc 057a a63c c0bc 433b 7041 d4bb
00000080: 84d2 b6bc 9daa 173d 5e8b 103d 8b84 293d
00000090: 69bc 3d3c 1a81 c8bc 3913 18bc 0c9d 363c
000000a0: 5a36 1ebd b1a9 fcbc a456 433d 52cf 91bc
000000b0: fb43 003d 537f d6bc 8fee d8bb 8b00 eb3c
000000c0: 59f6 653c 1a63 50bc f70c 093c 1edd 25bc
000000d0: b6a9 923c 0e70 9d3c aec7 8c3c 2f6b 63bc
000000e0: b437 18bd fd04 3f3d 1cfc 123d fd5c 333c
000000f0: 4637 043c a17b 9fbb 36da bfbb a2cb e4bc

weight f4 [64]
0.97709596 0.9979287 0.9693412 0.9365493 1.1111751 1.0431347 0.9643394 1.0080354
0.9502812 1.0197372 0.98773456 0.9732717 0.9480013 1.013591 1.0937631 0.9312923
0.98114896 0.95590895 1.114063 0.9778012 0.9886261 1.0723251 1.0579939 1.0277778
0.9955594 1.0253364 0.97564554 1.0247368 0.95532393 0.9613828 0.91581506 0.9441765
0.95249987 0.95099205 0.9672772 1.0240482 1.018977 1.057365 0.9924237 0.97746515
0.94282776 0.97228384 1.003872 1.0287306 1.0074636 0.97619325 1.0099496 0.97507787
0.9774426 1.0283228 1.0073073 1.0472143 1.0312161 0.9681044 1.0374532 0.98419267
1.066862 0.9762197 0.9854595 0.9120596 1.0304427 1.0026089 1.0351633 1.0958084
00000000: f622 7a3f 4178 7f3f bf26 783f b2c1 6f3f
00000010: fc3a 8e3f 7085 853f f2de 763f 4e07 813f
00000020: a145 733f c086 823f 2cdc 7c3f 5628 793f
00000030: 37b0 723f 5abd 813f 6e00 8c3f 2c69 6e3f
00000040: 942c 7b3f 73b6 743f 9e99 8e3f 2e51 7a3f
00000050: 9a16 7d3f f341 893f 586c 873f 398e 833f
00000060: fbdc 7e3f 393e 833f e8c3 793f 932a 833f
00000070: 1c90 743f 2f1d 763f db72 6a3f 8db5 713f
00000080: 08d7 733f 3774 733f 7b9f 773f 0314 833f
00000090: d76d 823f bc57 873f 7b0f 7e3f 283b 7a3f
000000a0: 295d 713f 98e7 783f e17e 803f 72ad 833f
000000b0: 91f4 803f cde7 793f 0746 813f b49e 793f
000000c0: ae39 7a3f 15a0 833f 72ef 803f 1e0b 863f
000000d0: e4fe 833f b1d5 773f 44cb 843f 0df4 7b3f
000000e0: ef8e 883f 89e9 793f 1347 7c3f bd7c 693f
000000f0: 8ce5 833f 7d55 803f 3b80 843f 7343 8c3f

bias f4 [64]
-0.028205745 -0.035622686 -0.13902378 0.016456105 -0.08679082 -0.028798338 -0.03651431 -0.020904008
-0.06962201 -0.14599715 -0.073710665 -0.05649428 -0.15762131 -0.04712488 -0.120341025 -0.065908216
-0.092396595 -0.12545986 -0.083336346 -0.03851543 -0.06712849 0.01835468 -0.14893056 -0.051253513
-0.07363026 -0.051145494 -0.13088183 -0.057908267 -0.14907123 -0.19359377 -0.051463135 -0.08705611
-0.10367123 -0.18520355 -0.04114794 -0.00908362 -0.013494143 -5.5870514e-05 -0.13510044 -0.15728377
0.015231561 0.01854276 -0.11473362 -0.021113524 -0.070170544 -0.14419241 -0.0074850013 -0.10786734
-0.056244954 -0.08502189 -0.05566185 0.009799968 -0.11027948 -0.10968653 -0.08504253 -0.07857283
-0.02743935 -0.102340944 -0.094386995 -0.06979112 -0.06538158 -0.08366651 0.019275088 -0.01870715
00000000: bc0f e7bc 18e9 11bd 405c 0ebe f4ce 863c
00000010: 63bf b1bd 7eea ebbc 0790 15bd e23e abbc
00000020: fc95 8ebd 4780 15be 9ef5 96bd 8c66 67bd
00000030: 7b67 21be 0506 41bd 5b75 f6bd e3fa 86bd
00000040: 6d3a bdbd 8d78 00be 3fac aabd 5bc2 1dbd
00000050: a97a 89bd 8e5c 963c 4181 18be 34ef 51bd
00000060: 76cb 96bd f07d 51bd e305 06be 3831 6dbd
00000070: 21a6 18be 723d 46be 02cb 52bd 794a b2bd
00000080: 9551 d4bd 00a6 3dbe be8a 28bd 77d3 14bc
00000090: 8a16 5dbc 8256 6ab8 c557 0abe ff0e 21be
000000a0: cc8d 793c fce6 973c 76f9 eabd 45f6 acbc
000000b0: 93b5 8fbd 2da7 13be be44 f5bb 8de9 dcbd
000000c0: 1c61 66bd f51f aebd aefd 63bd 0c90 203c
000000d0: 35da e1bd 55a3 e0bd c72a aebd cbea a0bd
000000e0: 7dc8 e0bc 2198 d1bd f84d c1bd a6ee 8ebd
000000f0: c7e6 85bd 5959 abbd cae6 9d3c bd3f 99bc

running_mean f4 [64]
-1.521866 -1.4661824 -8.714848 -2.0844638 -1.1410384 -0.8116458 -0.4296026 -1.9563892
-2.565138 -9.082937 3.1391797 -0.8667725 -5.8001246 -2.0279677 -3.031826 0.2855316
-6.973323 -6.4843116 -1.6627278 -2.9475708 -2.6578448 -0.9384809 -1.1167898 -1.0185713
-2.800062 -2.2536292 -8.808565 -1.8185908 -7.264153 -7.046135 1.9439261 -1.296257
-11.663046 -12.4662 1.0674533 -3.0537426 -3.3409593 0.022118269 -1.6943684 -6.028092
-0.9760477 -3.0165672 -3.4489548 -2.6757214 -1.4053502 -8.416575 -5.016768 -2.3142986
-0.20422156 2.0185118 2.5543396 -1.0089171 -3.0120618 -3.5159903 1.2647778 -3.454112
-2.6095543 -2.4422383 -9.692333 -1.9071535 0.49200904 -3.4028223 -2.6477818 -1.4581841
00000000: 81cc c2bf ddab bbbf 0470 0bc1 db67 05c0
00000010: 8c0d 92bf 05c8 4fbf dff4 dbbe f66a fabf
00000020: 392b 24c0 b653 11c1 52e8 4840 cde4 5dbf
00000030: 9f9a b9c0 39ca 01c0 7009 42c0 3331 923e
00000040: 7625 dfc0 7b7f cfc0 44d4 d4bf 00a5 3cc0
00000050: 211a 2ac0 4940 70bf f8f2 8ebf 8b60 82bf
00000060: 3734 33c0 763b 10c0 e2ef 0cc1 95c7 e8bf
00000070: f173 e8c0 f079 e1c0 92d2 f83f c0eb a5bf
00000080: d69b 3ac1 8e75 47c1 4fa2 883f 8570 43c0
00000090: 47d2 55c0 5f31 b53c 10e1 d8bf 21e6 c0c0
000000a0: 43de 79bf 700f 41c0 adbb 5cc0 053f 2bc0
000000b0: 84e2 b3bf 4baa 06c1 5d89 a0c0 781d 14c0
000000c0: 751f 51be 4c2f 0140 4d7a 2340 3224 81bf
000000d0: 9fc5 40c0 fc05 61c0 3de4 a13f 2c10 5dc0
000000e0: f002 27c0 a24d 1cc0 cc13 1bc1 9b1d f4bf
000000f0: 9ce8 fb3e d7c7 59c0 4275 29c0 c7a5 babf

running_var f4 [64]
5.050791 6.977721 36.31141 7.7207003 4.1383224 2.1079726 5.1263075 5.6347322
7.320077 28.305573 5.9602356 9.505955 19.48499 8.4002495 9.405145 4.3910995
22.341578 14.609912 7.940758 8.611161 6.783916 4.4436755 6.491105 7.030063
8.359555 6.477702 30.865973 5.5090756 24.978876 24.80293 6.059302 5.9326663
44.60538 64.53734 5.735505 8.489507 8.142409 6.7638426 6.1436024 20.88124
7.970415 6.561589 7.788339 8.127311 6.0617137 38.886963 11.432914 8.602628
4.689536 6.0812755 6.6885257 4.6848745 10.750968 12.287486 5.716707 8.444682
6.2643805 5.5755286 34.138176 9.65615 5.063416 10.818118 6.7625775 11.026396
00000000: 14a0 a140 7e49 df40 e23e 1142 fa0f f740
00000010: 236d 8440 06e9 0640 b60a a440 ba4f b440
00000020: 123e ea40 d071 e241 40ba be40 6418 1841
00000030: 42e1 9b41 6c67 0641 797b 1641 e383 8c40
00000040: 8dbb b241 33c2 6941 b11a fe40 51c7 0941
00000050: d715 d940 9732 8e40 22b7 cf40 47f6 e040
00000060: bdc0 0541 5649 cf40 83ed f641 594a b040
00000070: bdd4 c741 676c c641 cde5 c140 67d8 bd40
00000080: e96b 3242 1e13 8142 4289 b740 05d5 0741
00000090: 4f47 0241 6671 d840 6498 c440 c80c a741
000000a0: a40d ff40 89f8 d140 133a f940 7709 0241
000000b0: 8ff9 c140 408c 1b42 37ed 3641 5da4 0941
000000c0: ae10 9640 cf99 c240 6708 d640 7eea 9540
000000d0: f703 2c41 8b99 4441 44ef b640 6b1d 0741
000000e0: ce75 c840 bb6a b240 7e8d 0842 977f 1a41
000000f0: 8107 a240 0317 2d41 0967 d840 1e6c 3041

weight f4 [64, 64, 3, 3]
0.02436942 -0.024487685 0.0065358407 -0.05142791 0.0076281405 -0.012478025 0.004397766 0.0036105025
-0.07060145 0.008072918 -0.00031365122 0.037995804 -0.016106667 0.011389246 -0.011193492 -0.00876154
-0.02421735 -0.009572693 -0.105514735 -0.038862374 0.0122934375 -0.0082253795 0.011159812 -6.203768e-05
-0.037553977 0.018262668 0.045747954 -0.015227536 0.020837115 -0.041949105 -0.034031395 0.033359505
-0.015020367 -0.01872093 -0.034935854 0.019574739 -0.09698617 -0.054220367 0.067215376 0.02615112
0.01829995 -0.028001646 0.055259272 0.084952906 0.058521573 0.028058905 0.09662601 0.020863878
-0.0040646517 0.05257972 0.01541237 -0.011038852 0.016544433 -0.016994473 0.0055605373 0.013549927
-0.037303343 0.013309164 -0.034581903 0.002631999 0.041849658 0.046110984 0.030983204 0.05655098
-0.010170234 0.03147922 0.06233583 0.053815946 0.0066787023 0.017718887 -0.03216842 -0.07949634
-0.011104709 -0.08596349 -0.029585546 0.010865583 -0.03237117 -0.054536615 0.021002088 0.012870883
-0.019673146 -0.060902715 -0.11354302 -0.026254743 -0.07917781 -0.040145133 -0.019794932 0.008160141
0.026550392 0.039893515 0.085101284 0.07174 0.0037781624 0.05051508 0.09330445 0.015995236
-0.037142288 -0.10113651 -0.055734463 -0.019528948 0.022475626 0.05710647 0.0139102815 -0.036316536
0.0203844 0.088932514 0.023992809 0.0004365032 -0.026185565 -0.021223444 -0.025926461 0.0456878
0.03912551 0.012791802 0.001364465 0.0015528844 -0.009650493 -0.08497083 -0.018500105 0.0119793555
0.0008431392 0.025118366 0.007561202 0.0105695715 0.034571175 0.028558793 0.031491622 -0.037437465
-0.044656165 0.05752522 0.056728017 0.04464336 0.15147342 0.12856486 0.069027275 0.013239961
0.004570745 -0.018716043 0.017294604 -0.077394 -0.04292786 -0.044304248 -0.0409359 -0.030718898
0.00023639863 -0.0681036 -0.031208385 -0.012467498 -0.041373037 -0.0018878602 0.047483385 0.0264354
0.03826596 -0.060614247 -0.05550261 -0.017948896 -0.027259039 -0.042944446 0.03690408 -0.026306996
0.024686817 0.04207525 -0.006945628 0.010428039 -0.0057044597 0.012228549 0.069128685 0.027589858
0.07545578 0.122475594 0.10706969 0.019237315 0.064494826 -0.047115713 0.004088888 0.08157834
0.008304831 0.071370214 0.018146591 0.0010876147 0.040685147 -0.022075806 0.039299842 0.01996684
0.013570356 0.0536475 0.01381311 -0.0016546036 0.0024337969 -0.019898595 -0.0073317513 0.016751157
-0.020237898 0.04710454 0.09318772 0.060834702 0.0497497 0.09406478 0.017046243 0.0013045033
0.021081818 0.07547853 -0.0025430126 0.07703773 0.057598334 0.10279952 0.13281325 -0.0016857191
0.018715408 0.016213948 0.027180452 0.08924369 -0.03780647 0.05046127 0.029609011 -0.04964981
-0.09753973 -0.10967281 -0.011234927 0.021018168 0.014869148 0.009713444 0.039144874 0.02831635
0.10950108 -0.079669684 -0.034677178 0.036004476 0.0116982665 -0.04067821 0.04003541 0.01257368
0.02237015 0.005380349 -0.010972575 -0.031834688 -0.0002807312 0.0134016825 0.026557093 0.076193884
0.03693112 0.037398398 0.05592922 0.043013133 -0.021594943 0.0021056992 -0.041235577 -0.016264627
-0.013889498 0.0017033418 0.061323047 0.060016897 -0.011457078 -0.028453575 0.029294748 0.027036685
00000000: 61a2 c73c 669a c8bc 9b2a d63b 12a6 52bd
00000010: 7bf5 f93b a170 4cbc 231b 903b 2e9e 6c3b
00000020: 7e97 90bd 4644 043c 8e71 a4b9 7da1 1b3d
00000030: 21f2 83bc f699 3a3c e964 37bc 908c 0fbc
00000040: 7763 c6bc c9d6 1cbc 1c18 d8bd 272e 1fbd
00000050: 6a6a 493c bec3 06bc a5d7 363c 3a1a 82b8
00000060: 33d2 19bd 979b 953c 3562 3b3d ea7c 79bc
00000070: 99b2 aa3c d3d2 2bbd 8164 0bbd faa3 083d
00000080: fc17 76bc a35c 99bc e618 0fbd 345b a03c
00000090: afa0 c6bd 2d16 5ebd 37a8 893d e03a d63c
000000a0: c7e9 953c b563 e5bc 8c57 623d cafb ad3d
000000b0: 51b4 6f3d cadb e53c dce3 c53d b9ea aa3c
000000c0: c530 85bb d55d 573d 2a84 7c3c 4ddc 34bc
000000d0: 3188 873c fe37 8bbc 2b35 b63b 8300 5e3c
000000e0: 64cb 18bd ae0e 5a3c c1a5 0dbd 9e7d 2c3b
000000f0: 8c6a 2b3d dfde 3c3d 7dd0 fd3c 00a2 673d
00000100: 0ea1 26bc 5bf0 003d db53 7f3d 1c6e 5c3d
00000110: 04d9 da3b 3327 913c 08c3 03bd face a2bd
00000120: 86f0 35bc a00d b0bd 635d f2bc 8f05 323c
00000130: a297 04bd c961 5fbd 920c ac3c 65e0 523c
00000140: 9429 a1bc 2075 79bd 3e89 e8bd 3014 d7bc
00000150: fa27 a2bd 396f 24bd fb28 a2bc 1db2 053c
00000160: 3580 d93c 6267 233d 9549 ae3d 6cec 923d
00000170: 0c9b 773b e7e8 4e3d 6716 bf3d 7108 833c
00000180: 8322 18bd a920 cfbd d249 64bd 2cfb 9fbc
00000190: ce1e b83c 79e8 693d f3e7 633c a6c0 14bd
000001a0: 2ffd a63c 4022 b63d 918c c43c 78da e439
000001b0: 1c83 d6bc cadc adbc bb63 d4bc 2123 3b3d
000001c0: 1242 203d b594 513c d9d7 b23a 278a cb3a
000001d0: 1a1d 1ebc 3005 aebd 888d 97bc 0f45 443c
000001e0: 1d06 5d3a 08c5 cd3c f6c3 f73b ff2b 2d3c
000001f0: 819a 0d3d 21f4 e93c 5cfd 003d 0758 19bd
00000200: 62e9 36bd 919f 6b3d a35b 683d f5db 363d
00000210: d91b 1b3e 82a6 033e 2c5e 8d3d 6cec 583c
00000220: 30c6 953b 6352 99bc 6aad 8d3c bf80 9ebd
00000230: 20d5 2fbd 5f78 35bd 67ac 27bd 33a6 fbbc
00000240: c6e1 7739 e679 8bbd baa8 ffbc 7a44 4cbc
00000250: c676 29bd 1472 f7ba f07d 423d 0d8f d83c
00000260: c4bc 1c3d a546 78bd b456 63bd 9009 93bc
00000270: 594e dfbc 84e6 2fbd bc28 173d c581 d7bc
00000280: 023c ca3c 1957 2c3d 2798 e3bb 5eda 2a3c
00000290: 7aec babb 415a 483c 5793 8d3d 2004 e23c
000002a0: 8f88 9a3d 7cd4 fa3d 5b47 db3d 9397 9d3c
000002b0: dd15 843d 68fc 40bd 14fc 853b 8b12 a73d
000002c0: fc10 083c 8c2a 923d 29a8 943c 4b8e 8e3a
000002d0: 78a5 263d 52d8 b4bc dff8 203d 8091 a33c
000002e0: 3356 5e3c 7bbd 5b3d 6250 623c 49df d8ba
000002f0: 5680 1f3b 6102 a3bc 303f f0bb b939 893c
00000300: f3c9 a5bc b1f0 403d 34d9 be3d cf2d 793d
00000310: 57c6 4b3d 09a5 c03d 90a4 8b3c defb aa3a
00000320: c7b3 ac3c 7d94 9a3d aca8 26bb f5c5 9d3d
00000330: 3bec 6b3d 8e88 d23d 3200 083e 59f3 dcba
00000340: 0e51 993c 1dd3 843c 8aa9 de3c 65c5 b63d
00000350: f5da 1abd 7ab0 4e3d 998e f23c 995d 4bbd
00000360: e9c2 c7bd 239c e0bd b312 38bc 4b2e ac3c
00000370: ba9d 733c 2325 1f3c 6056 203d b1f7 e73c
00000380: 1a42 e03d dc29 a3bd a809 0ebd 6e79 133d
00000390: 16aa 3f3c 329e 26bd 2cfc 233d d601 4e3c
000003a0: 9b41 b73c a34d b03b 51c6 33bc 1765 02bd
000003b0: 1b2f 93b9 bb92 5b3c 438e d93c 8a0b 9c3d
000003c0: 1645 173d 102f 193d 0a16 653d 8a2e 303d
000003d0: e1e7 b0bc c5ff 093b a3e6 28bd 653d 85bc
000003e0: c790 63bc ab42 df3a e02d 7b3d 47d4 753d
000003f0: 78b6 3bbc 7917 e9bc 8afb ef3c 0a7c dd3c

bias f4 [64]
-0.00915366 0.04373703 0.010838407 -0.011987584 0.0029356016 -0.0071217865 0.031594973 -0.0006568229
-0.032625534 0.017909592 -0.031120084 -0.020022476 0.003566244 -0.0069656535 0.047121685 -0.005997612
-0.009112846 -0.0032132734 0.0020596057 -0.014973329 -0.018283151 -0.023913462 0.017021364 0.021199694
-0.01948243 0.026698263 -0.0063764406 0.02152577 0.016054658 0.00881949 -0.006968212 -0.0029752264
-0.00027002327 0.02646517 0.038144477 0.039488293 0.052171655 -0.023830099 -0.01054381 0.04538118
0.027565865 -0.008829633 0.029823711 0.017160788 -0.008164201 -0.0077483696 -0.01826804 -0.0035224652
0.004219512 0.00651257 0.057913058 -0.029890016 -0.010089737 0.030306334 -0.015837625 0.010401911
-0.008245485 -0.015528669 -0.0261712 -0.033275522 0.007051753 0.008823168 0.016056001 0.008859124
00000000: 3cf9 15bc 9a25 333d 9393 313c 9267 44bc
00000010: 3963 403b e05d e9bb bb69 013d a32e 2cba
00000020: 5aa2 05bd 23b7 923c 8cef febc 2d06 a4bc
00000030: a5b7 693b 2340 e4bb ab02 413d 9e87 c4bb
00000040: 0c4e 15bc c895 52bb 73fa 063b b252 75bc
00000050: 8cc6 95bc 2ae6 c3bc 6370 8b3c fbaa ad3c
00000060: 9e99 9fbc 51b6 da3c 76f1 d0bb d056 b03c
00000070: 0f85 833c 9f7f 103c 9955 e4bb 04fc 42bb
00000080: e991 8db9 7ccd d83c 623d 1c3d 7abe 213d
00000090: f2b1 553d 5737 c3bc f2bf 2cbc 9ee1 393d
000000a0: cfd1 e13c 2aaa 10bc db50 f43c c894 8c3c
000000b0: 24c3 05bc 09e6 fdbb dba6 95bc 29d9 66bb
000000c0: d543 8a3b 6667 d53b 3e36 6d3d e8db f4bc
000000d0: 6d4f 25bc fd44 f83c e8bd 81bc c76c 2a3c
000000e0: 1218 07bc f56b 7ebc fc64 d6bc ea4b 08bd
000000f0: 6412 e73b 0d8f 103c e087 833c dc25 113c

weight f4 [64]
1.005927 1.0330776 1.0204798 0.99923784 1.0157393 1.0818106 0.9318055 1.0549155
1.030601 0.97761595 0.9647752 1.0011059 0.989487 0.98938197 1.0482072 1.0028825
1.0273691 1.0434761 0.97715396 1.0582705 1.0299373 0.9732325 0.9909047 0.9854481
0.99163365 0.96131927 1.0487136 0.9926936 1.0076473 1.0715691 1.015402 0.99722606
1.1110504 1.0062319 0.9831063 0.95562845 1.0058204 0.99139154 1.0425913 0.99263626
0.9744772 0.983451 0.96716774 0.9645226 1.0412989 0.9672478 1.0258868 1.0707955
0.99944514 1.0183017 1.0067722 1.0724527 1.0436203 0.93908316 0.9818076 0.98110473
0.9418257 0.9917023 0.97793967 1.0052758 1.0147249 0.98565733 0.97595596 1.0549045
00000000: 37c2 803f e33b 843f 159f 823f 0dce 7f3f
00000010: bf03 823f c578 8a3f ce8a 6e3f 7907 873f
00000020: bcea 833f 0a45 7a3f 82fb 763f 3d24 803f
00000030: 054f 7d3f 2348 7d3f a72b 863f 745e 803f
00000040: d580 833f a090 853f c326 7a3f 6875 873f
00000050: fcd4 833f c425 793f eeab 7d3f 5446 7c3f
00000060: b4db 7d3f 0519 763f 3f3c 863f 2b21 7e3f
00000070: 96fa 803f 2d29 893f b1f8 813f 354a 7f3f
00000080: e636 8e3f 35cc 803f dbac 7b3f 11a4 743f
00000090: b9be 803f d6cb 7d3f a273 853f 691d 7e3f
000000a0: 5677 793f 72c3 7b3f 4e98 773f f4ea 763f
000000b0: 4849 853f 8d9d 773f 4250 833f d40f 893f
000000c0: a3db 7f3f b657 823f e9dd 803f 2146 893f
000000d0: 5a95 853f c167 703f be57 7b3f ae29 7b3f
000000e0: 7d1b 713f 34e0 7d3f 415a 7a3f e1ac 803f
000000f0: 81e2 813f 0a54 7c3f 40d8 793f 1c07 873f

bias f4 [64]
-0.0014804911 -0.10266652 -0.06563425 -0.06555165 -0.028428309 -0.03509717 -0.093544126 -0.05892373
-0.10188112 -0.0296939 -0.060826533 -0.047772426 -0.06500829 -0.08002935 -0.027606219 -0.062274065
-0.087884575 -0.106640965 -0.10989265 -0.11487599 -0.006547686 -0.017286673 -0.11222679 -0.1414812
-0.107146576 -0.14176546 0.03589332 -0.056278028 0.00643739 -0.17663456 -0.07703489 -0.09642595
-0.07237483 -0.10295354 -0.114385225 -0.13639157 -0.045754954 -0.06790161 -0.012409838 -0.05400541
-0.059964184 -0.035323244 -0.027850443 -0.044324953 -0.028832456 -0.047551055 -0.028039884 -0.02566672
-0.07502856 -0.06311021 -0.11396136 -0.10027488 -0.06269617 -0.03366499 -0.056111623 -0.06912907
-0.06552873 -0.027620388 -0.07046901 -0.056319106 -0.07627433 -0.06657377 -0.07670459 -0.031723507
00000000: 0a0d c2ba d342 d2bd 406b 86bd f23f 86bd
00000010: 7ce2 e8bc 0dc2 0fbd 1094 bfbd 025a 71bd
00000020: 0ca7 d0bd 9f40 f3bc 3e25 79bd 05ad 43bd
00000030: 1123 85bd 6ee6 a3bd 7026 e2bc 1713 7fbd
00000040: d4fc b3bd 9466 dabd 660f e1bd 1a44 ebbd
00000050: f98d d6bb c89c 8dbc 29d7 e5bd 73e0 10be
00000060: aa6f dbbd f72a 11be e004 133d ca83 66bd
00000070: bef0 d23b b1df 34be 78c4 9dbd f87a c5bd
00000080: 4139 94bd 4ed9 d2bd cd42 eabd 3baa 0bbe
00000090: 8c69 3bbd 0010 8bbd a252 4bbc c734 5dbd
000000a0: 019d 75bd 1baf 10bd 9d26 e4bc 158e 35bd
000000b0: 0b32 ecbc e5c4 42bd e6b3 e5bc 0343 d2bc
000000c0: 93a8 99bd ed3f 81bd 9364 e9bd eb5c cdbd
000000d0: d966 80bd 4de4 09bd 4dd5 65bd 8b93 8dbd
000000e0: ed33 86bd 2744 e2bc 0e52 90bd ddae 66bd
000000f0: b735 9cbd d457 88bd 4c17 9dbd 82f0 01bd

running_mean f4 [64]
1.6928601 -4.683229 1.0933768 -1.573566 -6.521725 -5.0039225 -0.48104587 -2.015611
-1.0973054 -1.0899444 -0.75202936 -4.674538 0.78894544 -1.272573 -1.5959226 -3.3992362
-1.6379813 -5.027457 2.4482887 -2.2939014 -0.77834326 2.0058737 -4.4729137 0.28507808
-0.71452475 -0.33789667 -3.077864 0.6960001 -4.4052844 -0.68534696 0.17219134 0.39835343
-2.0068905 3.340235 1.6233245 3.6993952 -2.2115536 0.049544994 -1.4037124 0.15250276
0.1547879 -0.2652079 -4.063286 0.47037137 -0.8431146 2.0737443 0.79817724 -1.9397926
-1.700061 1.3565246 -1.3596642 -3.1454825 -3.141998 1.4332119 -2.4212763 -0.26240245
1.1327289 -2.7289066 1.8497635 -1.3569443 1.1779294 -4.6390724 -0.71576405 -2.6237273
00000000: a4af d83f 03dd 95c0 c5f3 8b3f 9c6a c9bf
00000010: f9b1 d0c0 2220 a0c0 a54b f6be c5ff 00c0
00000020: 8174 8cbf 4c83 8bbf ff84 40bf d195 95c0
00000030: 54f8 493f ace3 a2bf 3147 ccbf 168d 59c0
00000040: 5fa9 d1bf eee0 a0c0 c3b0 1c40 48cf 12c0
00000050: 8141 47bf 3c60 0040 1c22 8fc0 c1f5 913e
00000060: 18eb 36bf cb00 adbe b9fb 44c0 102d 323f
00000070: 17f8 8cc0 e672 2fbf ed52 303e fbf4 cb3e
00000080: e570 00c0 69c6 5540 19c9 cf3f e4c2 6c40
00000090: 188a 0dc0 b1ef 4a3d d9ac b3bf af29 1c3e
000000a0: b880 1e3e 54c9 87be 7006 82c0 84d4 f03e
000000b0: 5cd6 57bf 3ab8 0440 5855 4c3f 204b f8bf
000000c0: 999b d9bf 99a2 ad3f 7a09 aebf 964f 49c0
000000d0: 7f16 49c0 7d73 b73f 31f6 1ac0 9d59 86be
000000e0: 43fd 903f 68a6 2ec0 0dc5 ec3f 5ab0 adbf
000000f0: 64c6 963f 4873 94c0 503c 37bf 26eb 27c0

running_var f4 [64]
2.3073716 4.5331454 2.4624634 1.9885205 4.77138 4.5647345 1.6563755 2.7886486
2.1895232 1.6882117 3.1733427 4.4408813 4.9743876 3.1663687 2.8887527 4.393502
2.4657125 4.266694 2.9147754 3.4890816 2.35954 4.5034814 4.6345196 4.8506126
2.4565763 2.709023 4.6602287 3.3790154 3.3445415 2.1396039 3.1186683 1.9479983
3.9165335 2.4117684 3.4433055 4.2811065 2.721188 6.181767 2.2479587 1.8880398
2.3728452 3.7920153 5.4839797 4.109582 2.975324 2.6575215 2.7726588 2.358348
3.6724863 4.428961 3.627879 4.340576 3.1812365 3.3178294 4.0328918 1.812283
4.185065 7.247478 2.9858208 4.6709266 2.3142595 4.7982426 6.6871395 2.9685616
00000000: faab 1340 870f 9140 0099 1d40 d787 fe3f
00000010: 25af 9840 4e12 9240 1d04 d43f 3879 3240
00000020: 2621 0c40 5217 d83f 0c18 4b40 b31b 8e40
00000030: 2f2e 9f40 c9a5 4a40 53e1 3840 9297 8c40
00000040: 3cce 1d40 c288 8840 ae8b 3a40 1d4d 5f40
00000050: b402 1740 851c 9040 fc4d 9440 3838 9b40
00000060: 8c38 1d40 a260 2d40 9820 9540 ca41 5840
00000070: f80c 5640 45ef 0840 4398 4740 0258 f93f
00000080: 7ca8 7a40 6a5a 1a40 1e5f 5c40 d3fe 8840
00000090: f227 2e40 09d1 c540 8ede 0f40 4aab f13f
000000a0: b2dc 1740 61b0 7240 c37c af40 b281 8340
000000b0: b56b 3e40 d514 2a40 3e73 3140 2cef 1640
000000c0: 040a 6b40 0cba 8d40 2b2f 6840 00e6 8a40
000000d0: 6199 4b40 5157 5440 730d 8140 e4f8 e73f
000000e0: 0dec 8540 57eb e740 b017 3f40 3b78 9540
000000f0: d41c 1440 348b 9940 0cfd d540 eafc 3d40

weight f4 [64, 64, 3, 3]
0.03888619 0.013275303 -0.039792247 -0.017662885 0.018328175 0.021122795 0.029503932 0.004158624
-0.01439417 0.0071547995 -0.021523297 0.09312573 -0.059083782 -0.07476239 -0.028530948 -0.028813975
-0.07064188 0.06919181 -0.033506166 -0.0867257 -0.021899246 -0.09358039 -0.106692225 -0.11217361
-0.0903495 -0.10400262 -0.07156026 -0.011410807 -0.02706938 -0.01110535 -0.0093082655 -0.08875027
-0.07629869 -0.0010904045 -0.05226526 0.013968216 0.08250425 0.029449549 0.029868457 0.05015095
-0.008082272 0.005311047 -0.014670119 -0.04393777 0.020637313 -0.00506337 2.5294537e-05 0.0012480454
-0.08690922 -0.017639207 0.044012357 -0.009921998 0.004255047 0.08692294 -0.0121861715 0.034461044
0.031708017 -0.023935271 0.011790037 -0.017805567 0.026227355 0.05055484 0.0061158976 0.043557942
0.025953848 0.072619945 -0.0019349403 0.04199586 0.060699344 0.11615617 0.04710097 0.06740026
-0.10608512 -0.08790013 -0.08125964 -0.027898828 -0.06718791 -0.047363374 0.052735504 -0.021224603
0.038869355 -0.021262316 0.0036101276 0.05606402 -0.019034572 -0.046038516 0.013719141 0.04689335
0.070996046 0.00094315 0.016207544 -0.030679245 0.023497043 -0.032855343 0.00909793 -0.015578616
-0.04858699 0.037247352 0.0046816384 0.01618205 -0.02081161 -0.035432067 -0.036990423 -0.0038717226
0.002566313 0.006146362 -0.01243736 0.027721457 0.01048724 -0.06781107 -0.023140566 0.021076726
-0.05347509 -0.08607105 0.022843001 -0.05863414 0.0102474 0.017652662 -0.019248614 -0.05075515
-0.047047943 -0.029960483 -0.04620127 -0.0011391572 -0.050620195 0.02752927 0.03131797 -0.03322533
0.020667892 -0.07355638 -0.09722314 -0.01918719 -0.0140349325 -0.07745028 0.046764523 -0.045629967
-0.042930424 0.012262536 -0.08643634 -0.031666957 -0.033909444 -0.0154555915 -0.04384344 -0.014285852
0.021176985 0.013586439 0.017878901 0.037509874 -0.015577301 -0.024029942 0.047489744 -0.0119431745
-0.021382838 0.011791466 -0.014583377 0.032015327 -0.03479916 -0.050993916 0.0040102326 -0.035745118
-0.079721905 -0.058254115 0.0022247913 0.0019298951 0.0050209262 0.012486012 -0.0061213463 -0.046803072
-0.05306998 -0.016849019 -0.011902774 -0.0880375 -0.10349368 -0.055322815 -0.05510797 -0.07743603
-0.0342213 -0.014884672 -0.0374434 -0.029261155 -0.13861522 -0.05200556 -0.0008546561 -0.07377537
-0.068068445 -0.01982488 -0.058986824 -0.066328116 -0.11040354 -0.03256878 -0.017192341 -0.036891587
-0.09432788 -0.058295485 -0.010138965 -0.04804641 -0.04346312 -0.06361962 0.11130175 0.06747564
0.04523573 -0.007681596 -0.010127408 0.009754767 0.05876009 -0.008872101 0.00074225286 -0.029587023
-0.034099925 -0.03743141 -0.040457256 -0.01525447 0.0136814285 -0.012707557 0.014577212 -0.04282373
0.038499963 -0.040781163 0.04791068 -0.015712254 -0.023336798 -0.056805853 0.050920587 0.048538804
0.051386807 0.014345536 -0.02910106 0.014176546 -0.102407455 -0.03972584 -0.018927658 0.022628509
0.008392346 0.029252574 -0.03988102 -0.06521849 0.012692494 -0.059204303 -0.015091601 -0.05178842
0.040099353 -0.023789993 0.04959271 0.07114038 -0.0081687765 -0.059016485 -0.045716405 -0.0364667
-0.10890146 0.011961988 -0.093752526 -0.061540842 -0.04355774 -0.033727963 0.001775401 0.046463784
00000000: 2047 1f3d a880 593c 32fd 22bd c1b1 90bc
00000010: f824 963c b609 ad3c 3bb2 f13c 1145 883b
00000020: 86d5 6bbc cf72 ea3b a051 b0bc b4b8 be3d
00000030: d601 72bd 061d 99bd bcb9 e9bc 490b ecbc
00000040: b1ac 90bd 70b4 8d3d c33d 09bd 3e9d b1bd
00000050: 0c66 b3bc 13a7 bfbd 7481 dabd 47bb e5bd
00000060: 2909 b9bd 53ff d4bd 308e 92bd 65f4 3abc
00000070: 9bc0 ddbc 37f3 35bc b281 18bc b4c2 b5bd
00000080: 7d42 9cbd e7eb 8eba 1914 56bd f2da 643c
00000090: fdf7 a83d 2e40 f13c b2ae f43c 156b 4d3d
000000a0: 816b 04bc 4b08 ae3b f05a 70bc 17f8 33bd
000000b0: 950f a93c a0ea a5bb 9b2f d437 7495 a33a
000000c0: 76fd b1bd 1980 90bc 4d46 343d e08f 22bc
000000d0: ec6d 8b3b a804 b23d 82a8 47bc 0627 0d3d
000000e0: 44e0 013d e713 c4bc 002b 413c fbdc 91bc
000000f0: c0da d63c 9812 4f3d de67 c83b d069 323d
00000100: 2a9d d43c c4b9 943d d39d fdba da03 2c3d
00000110: e09f 783d 49e3 ed3d f2ec 403d 2609 8a3d
00000120: 2843 d9bd fc04 b4bd 746b a6bd 158c e4bc
00000130: d199 89bd 1900 42bd 2f01 583d 38df adbc
00000140: 7935 1f3d 4f2e aebc e497 6c3b 63a3 653d
00000150: 64ee 9bbc e292 3cbd 3fc6 603c 3e13 403d
00000160: 6066 913d ba3d 773a afc5 843c 0a53 fbbc
00000170: df7c c03c 5393 06bd 7c0f 153c 743d 7fbc
00000180: 2703 47bd ae90 183d 6e68 993b 3890 843c
00000190: 1c7d aabc 3721 11bd 4583 17bd babc 7dbb
000001a0: 962f 283b 6c67 c93b 12c6 4bbc 1c18 e33c
000001b0: acd2 2b3c 88e0 8abd 4991 bdbc 19a9 ac3c
000001c0: b208 5bbd 0546 b0bd 3f21 bb3c 5a2a 70bd
000001d0: b6e4 273c 519c 903c 45af 9dbc a2e4 4fbd
000001e0: 58b5 40bd b06f f5bc 8b3d 3dbd c64f 95ba
000001f0: 1f57 4fbd 1085 e13c 4647 003d 4917 08bd
00000200: b64f a93c baa4 96bd ed1c c7bd 742e 9dbc
00000210: c6f2 65bc 419e 9ebd 288c 3f3d 7de6 3abd
00000220: d0d7 2fbd cee8 483c 8905 b1bd 36b5 01bd
00000230: a1e4 0abd 7339 7dbc 2e95 33bd 350f 6abc
00000240: 5b7b ad3c a899 5e3c c676 923c f4a3 193d
00000250: f037 7fbc 71da c4bc 9b84 423d 4ead 43bc
00000260: 102b afbc fe30 413c 1eef 6ebc 8122 033d
00000270: 9089 0ebd ffde 50bd 4568 833b 7969 12bd
00000280: 3d45 a3bd de9b 6ebd cecd 113b 89f4 fc3a
00000290: 9586 a43b 2192 4c3c 9395 c8bb 94b4 3fbd
000002a0: e85f 59bd f406 8abc da03 43bc 014d b4bd
000002b0: 7ff4 d3bd 2d9a 62bd e5b8 61bd c896 9ebd
000002c0: a22b 0cbd d7de 73bc 405e 19bd 17b5 efbc
000002d0: 26f1 0dbe c803 55bd 000b 60ba 8b17 97bd
000002e0: 7867 8bbd c967 a2bc 2b9c 71bd 09d7 87bd
000002f0: 401b e2bd d766 05bd f4d6 8cbc a21b 17bd
00000300: fa2e c1bd 3fc7 6ebd e71d 26bc 50cc 44bd
00000310: 6206 32bd 014b 82bd 2cf2 e33d ab30 8a3d
00000320: 1a49 393d e6b5 fbbb 6eed 25bc 75d2 1f3c
00000330: 6cae 703d 4a5c 11bc bf93 423a 7c60 f2bc
00000340: 5dac 0bbd ae51 19bd 82b6 25bd e2ed 79bc
00000350: 1228 603c 5b33 50bc 42d5 6e3c ef67 2fbd
00000360: 23b2 1d3d 260a 27bd fd3d 443d fcb6 80bc
00000370: d02c bfbc 41ad 68bd 1b92 503d a0d0 463d
00000380: f97a 523d 8a09 6b3c 5965 eebc be44 683c
00000390: 00bb d1bd 90b7 22bd 2d0e 9bbc 6c5f b93c
000003a0: 0d80 093c 18a3 ef3c 485a 23bd 4691 85bd
000003b0: 2ef4 4f3c 3680 72bd c342 77bc 1820 54bd
000003c0: 383f 243d 3be3 c2bc ba21 4b3d 0cb2 913d
000003d0: 55d6 05bc 45bb 71bd 2041 3bbd 1b5e 15bd
000003e0: bb07 dfbd 37fc 433c 5301 c0bd 4012 7cbd
000003f0: 9a69 32bd 5526 0abd 92b4 e83a cf50 3e3d

bias f4 [64]
-0.06577385 0.06419218 -0.084276445 0.041868422 -0.016463596 0.016525423 0.11074285 0.013660481
0.028131405 0.059515815 0.0016796229 0.03689594 0.03464972 -0.044611134 0.015028368 0.016070373
-0.008227283 -0.00067427685 0.040204436 0.026450519 0.07256269 -0.0016824487 0.029096806 -0.0032768226
-0.033669796 -0.014572604 0.0074630994 0.0120161865 0.0042299125 -0.049285576 0.034835152 -0.012956569
-0.036383696 0.025414804 0.070743695 0.024283376 -0.016010275 -0.017491627 -0.011127146 -0.032482814
-0.027829513 0.026133124 0.017741699 -0.03758058 0.006831473 -0.007300278 0.051464606 0.029726293
-0.0021183332 0.008931104 -0.0032883442 -0.019101365 0.063193664 0.025003966 0.028752944 0.007870227
0.031507142 0.04152409 -0.02476484 0.0076025496 -0.057796 0.017437087 0.0199721 -0.021671066
00000000: 71b4 86bd 3177 833d 2199 acbd 397e 2b3d
00000010: aade 86bc 5360 873c 26cd e23d 36d0 5f3c
00000020: d573 e63c dbc6 733d cb26 dc3a 3220 173d
00000030: ddec 0d3d 2aba 36bd 8b39 763c 04a6 833c
00000040: bacb 06bc f4c1 30ba 68ad 243d c2ae d83c
00000050: bf9b 943d 9c85 dcba 6d5c ee3c f6bf 56bb
00000060: 57e9 09bd eec1 6ebc 048d f43b 8adf 443c
00000070: 149b 8a3b acdf 49bd 4eaf 0e3d ca47 54bc
00000080: 1207 15bd b532 d03c 12e2 903d eeed c63c
00000090: fb27 83bc 9a4a 8fbc a24e 36bc b30c 05bd
000000a0: b8fa e3bc 2215 d63c 0a57 913c 18ee 19bd
000000b0: 8dda df3b 2c37 efbb 8dcc 523d 8e84 f33c
000000c0: bcd3 0abb c453 123c 4381 57bb 777a 9cbc
000000d0: ae6b 813d 1ed5 cc3c 4b8b eb3c 20f2 003c
000000e0: a20d 013d 2a15 2a3d a2df cabc cf1e f93b
000000f0: 80bb 6cbd 39d8 8e3c 889c a33c 8587 b1bc
